…
KO;45;MT-Blachetta;MERGE-unsupervised_clustering;ac027234ed284a64a6c43acdeb343c67a3dda106;fixed memory issue (similarity matrix);
OK;45;MT-Blachetta;MERGE-unsupervised_clustering;ac027234ed284a64a6c43acdeb343c67a3dda106;fixed memory issue (similarity matrix);"+{
+ ""cells"": [
+  {
+   ""cell_type"": ""markdown"",
+   ""id"": ""afd3e0db"",
+   ""metadata"": {},
+   ""source"": [
+    ""## @ref = tv_res18""
+   ]
+  },
+  {
+   ""cell_type"": ""code"",
+   ""execution_count"": 1,
+   ""id"": ""dcd1c27d"",
+   ""metadata"": {},
+   ""outputs"": [
+    {
+     ""data"": {
+      ""text/plain"": [
+       ""ResNet(\n"",
+       ""  (conv1): Conv2d(3, 64, kernel_size=(7, 7), stride=(2, 2), padding=(3, 3), bias=False)\n"",
+       ""  (bn1): BatchNorm2d(64, eps=1e-05, momentum=0.1, affine=True, track_running_stats=True)\n"",
+       ""  (relu): ReLU(inplace=True)\n"",
+       ""  (maxpool): MaxPool2d(kernel_size=3, stride=2, padding=1, dilation=1, ceil_mode=False)\n"",
+       ""  (layer1): Sequential(\n"",
+       ""    (0): BasicBlock(\n"",
+       ""      (conv1): Conv2d(64, 64, kernel_size=(3, 3), stride=(1, 1), padding=(1, 1), bias=False)\n"",
+       ""      (bn1): BatchNorm2d(64, eps=1e-05, momentum=0.1, affine=True, track_running_stats=True)\n"",
+       ""      (relu): ReLU(inplace=True)\n"",
+       ""      (conv2): Conv2d(64, 64, kernel_size=(3, 3), stride=(1, 1), padding=(1, 1), bias=False)\n"",
+       ""      (bn2): BatchNorm2d(64, eps=1e-05, momentum=0.1, affine=True, track_running_stats=True)\n"",
+       ""    )\n"",
+       ""    (1): BasicBlock(\n"",
+       ""      (conv1): Conv2d(64, 64, kernel_size=(3, 3), stride=(1, 1), padding=(1, 1), bias=False)\n"",
+       ""      (bn1): BatchNorm2d(64, eps=1e-05, momentum=0.1, affine=True, track_running_stats=True)\n"",
+       ""      (relu): ReLU(inplace=True)\n"",
+       ""      (conv2): Conv2d(64, 64, kernel_size=(3, 3), stride=(1, 1), padding=(1, 1), bias=False)\n"",
+       ""      (bn2): BatchNorm2d(64, eps=1e-05, momentum=0.1, affine=True, track_running_stats=True)\n"",
+       ""    )\n"",
+       ""  )\n"",
+       ""  (layer2): Sequential(\n"",
+       ""    (0): BasicBlock(\n"",
+       ""      (conv1): Conv2d(64, 128, kernel_size=(3, 3), stride=(2, 2), padding=(1, 1), bias=False)\n"",
+       ""      (bn1): BatchNorm2d(128, eps=1e-05, momentum=0.1, affine=True, track_running_stats=True)\n"",
+       ""      (relu): ReLU(inplace=True)\n"",
+       ""      (conv2): Conv2d(128, 128, kernel_size=(3, 3), stride=(1, 1), padding=(1, 1), bias=False)\n"",
+       ""      (bn2): BatchNorm2d(128, eps=1e-05, momentum=0.1, affine=True, track_running_stats=True)\n"",
+       ""      (downsample): Sequential(\n"",
+       ""        (0): Conv2d(64, 128, kernel_size=(1, 1), stride=(2, 2), bias=False)\n"",
+       ""        (1): BatchNorm2d(128, eps=1e-05, momentum=0.1, affine=True, track_running_stats=True)\n"",
+       ""      )\n"",
+       ""    )\n"",
+       ""    (1): BasicBlock(\n"",
+       ""      (conv1): Conv2d(128, 128, kernel_size=(3, 3), stride=(1, 1), padding=(1, 1), bias=False)\n"",
+       ""      (bn1): BatchNorm2d(128, eps=1e-05, momentum=0.1, affine=True, track_running_stats=True)\n"",
+       ""      (relu): ReLU(inplace=True)\n"",
+       ""      (conv2): Conv2d(128, 128, kernel_size=(3, 3), stride=(1, 1), padding=(1, 1), bias=False)\n"",
+       ""      (bn2): BatchNorm2d(128, eps=1e-05, momentum=0.1, affine=True, track_running_stats=True)\n"",
+       ""    )\n"",
+       ""  )\n"",
+       ""  (layer3): Sequential(\n"",
+       ""    (0): BasicBlock(\n"",
+       ""      (conv1): Conv2d(128, 256, kernel_size=(3, 3), stride=(2, 2), padding=(1, 1), bias=False)\n"",
+       ""      (bn1): BatchNorm2d(256, eps=1e-05, momentum=0.1, affine=True, track_running_stats=True)\n"",
+       ""      (relu): ReLU(inplace=True)\n"",
+       ""      (conv2): Conv2d(256, 256, kernel_size=(3, 3), stride=(1, 1), padding=(1, 1), bias=False)\n"",
+       ""      (bn2): BatchNorm2d(256, eps=1e-05, momentum=0.1, affine=True, track_running_stats=True)\n"",
+       ""      (downsample): Sequential(\n"",
+       ""        (0): Conv2d(128, 256, kernel_size=(1, 1), stride=(2, 2), bias=False)\n"",
+       ""        (1): BatchNorm2d(256, eps=1e-05, momentum=0.1, affine=True, track_running_stats=True)\n"",
+       ""      )\n"",
+       ""    )\n"",
+       ""    (1): BasicBlock(\n"",
+       ""      (conv1): Conv2d(256, 256, kernel_size=(3, 3), stride=(1, 1), padding=(1, 1), bias=False)\n"",
+       ""      (bn1): BatchNorm2d(256, eps=1e-05, momentum=0.1, affine=True, track_running_stats=True)\n"",
+       ""      (relu): ReLU(inplace=True)\n"",
+       ""      (conv2): Conv2d(256, 256, kernel_size=(3, 3), stride=(1, 1), padding=(1, 1), bias=False)\n"",
+       ""      (bn2): BatchNorm2d(256, eps=1e-05, momentum=0.1, affine=True, track_running_stats=True)\n"",
+       ""    )\n"",
+       ""  )\n"",
+       ""  (layer4): Sequential(\n"",
+       ""    (0): BasicBlock(\n"",
+       ""      (conv1): Conv2d(256, 512, kernel_size=(3, 3), stride=(2, 2), padding=(1, 1), bias=False)\n"",
+       ""      (bn1): BatchNorm2d(512, eps=1e-05, momentum=0.1, affine=True, track_running_stats=True)\n"",
+       ""      (relu): ReLU(inplace=True)\n"",
+       ""      (conv2): Conv2d(512, 512, kernel_size=(3, 3), stride=(1, 1), padding=(1, 1), bias=False)\n"",
+       ""      (bn2): BatchNorm2d(512, eps=1e-05, momentum=0.1, affine=True, track_running_stats=True)\n"",
+       ""      (downsample): Sequential(\n"",
+       ""        (0): Conv2d(256, 512, kernel_size=(1, 1), stride=(2, 2), bias=False)\n"",
+       ""        (1): BatchNorm2d(512, eps=1e-05, momentum=0.1, affine=True, track_running_stats=True)\n"",
+       ""      )\n"",
+       ""    )\n"",
+       ""    (1): BasicBlock(\n"",
+       ""      (conv1): Conv2d(512, 512, kernel_size=(3, 3), stride=(1, 1), padding=(1, 1), bias=False)\n"",
+       ""      (bn1): BatchNorm2d(512, eps=1e-05, momentum=0.1, affine=True, track_running_stats=True)\n"",
+       ""      (relu): ReLU(inplace=True)\n"",
+       ""      (conv2): Conv2d(512, 512, kernel_size=(3, 3), stride=(1, 1), padding=(1, 1), bias=False)\n"",
+       ""      (bn2): BatchNorm2d(512, eps=1e-05, momentum=0.1, affine=True, track_running_stats=True)\n"",
+       ""    )\n"",
+       ""  )\n"",
+       ""  (avgpool): AdaptiveAvgPool2d(output_size=(1, 1))\n"",
+       ""  (fc): Linear(in_features=512, out_features=1000, bias=True)\n"",
+       "")""
+      ]
+     },
+     ""execution_count"": 1,
+     ""metadata"": {},
+     ""output_type"": ""execute_result""
+    }
+   ],
+   ""source"": [
+    ""import torchvision\n"",
+    ""\n"",
+    ""resnet18 = torchvision.models.resnet18()\n"",
+    ""resnet18""
+   ]
+  },
+  {
+   ""cell_type"": ""code"",
+   ""execution_count"": 2,
+   ""id"": ""c9ecd56d"",
+   ""metadata"": {},
+   ""outputs"": [
+    {
+     ""data"": {
+      ""text/plain"": [
+       ""ResNet(\n"",
+       ""  (conv1): Conv2d(3, 64, kernel_size=(7, 7), stride=(2, 2), padding=(3, 3), bias=False)\n"",
+       ""  (bn1): BatchNorm2d(64, eps=1e-05, momentum=0.1, affine=True, track_running_stats=True)\n"",
+       ""  (relu): ReLU(inplace=True)\n"",
+       ""  (maxpool): MaxPool2d(kernel_size=3, stride=2, padding=1, dilation=1, ceil_mode=False)\n"",
+       ""  (layer1): Sequential(\n"",
+       ""    (0): BasicBlock(\n"",
+       ""      (conv1): Conv2d(64, 64, kernel_size=(3, 3), stride=(1, 1), padding=(1, 1), bias=False)\n"",
+       ""      (bn1): BatchNorm2d(64, eps=1e-05, momentum=0.1, affine=True, track_running_stats=True)\n"",
+       ""      (relu): ReLU(inplace=True)\n"",
+       ""      (conv2): Conv2d(64, 64, kernel_size=(3, 3), stride=(1, 1), padding=(1, 1), bias=False)\n"",
+       ""      (bn2): BatchNorm2d(64, eps=1e-05, momentum=0.1, affine=True, track_running_stats=True)\n"",
+       ""    )\n"",
+       ""    (1): BasicBlock(\n"",
+       ""      (conv1): Conv2d(64, 64, kernel_size=(3, 3), stride=(1, 1), padding=(1, 1), bias=False)\n"",
+       ""      (bn1): BatchNorm2d(64, eps=1e-05, momentum=0.1, affine=True, track_running_stats=True)\n"",
+       ""      (relu): ReLU(inplace=True)\n"",
+       ""      (conv2): Conv2d(64, 64, kernel_size=(3, 3), stride=(1, 1), padding=(1, 1), bias=False)\n"",
+       ""      (bn2): BatchNorm2d(64, eps=1e-05, momentum=0.1, affine=True, track_running_stats=True)\n"",
+       ""    )\n"",
+       ""  )\n"",
+       ""  (layer2): Sequential(\n"",
+       ""    (0): BasicBlock(\n"",
+       ""      (conv1): Conv2d(64, 128, kernel_size=(3, 3), stride=(2, 2), padding=(1, 1), bias=False)\n"",
+       ""      (bn1): BatchNorm2d(128, eps=1e-05, momentum=0.1, affine=True, track_running_stats=True)\n"",
+       ""      (relu): ReLU(inplace=True)\n"",
+       ""      (conv2): Conv2d(128, 128, kernel_size=(3, 3), stride=(1, 1), padding=(1, 1), bias=False)\n"",
+       ""      (bn2): BatchNorm2d(128, eps=1e-05, momentum=0.1, affine=True, track_running_stats=True)\n"",
+       ""      (downsample): Sequential(\n"",
+       ""        (0): Conv2d(64, 128, kernel_size=(1, 1), stride=(2, 2), bias=False)\n"",
+       ""        (1): BatchNorm2d(128, eps=1e-05, momentum=0.1, affine=True, track_running_stats=True)\n"",
+       ""      )\n"",
+       ""    )\n"",
+       ""    (1): BasicBlock(\n"",
+       ""      (conv1): Conv2d(128, 128, kernel_size=(3, 3), stride=(1, 1), padding=(1, 1), bias=False)\n"",
+       ""      (bn1): BatchNorm2d(128, eps=1e-05, momentum=0.1, affine=True, track_running_stats=True)\n"",
+       ""      (relu): ReLU(inplace=True)\n"",
+       ""      (conv2): Conv2d(128, 128, kernel_size=(3, 3), stride=(1, 1), padding=(1, 1), bias=False)\n"",
+       ""      (bn2): BatchNorm2d(128, eps=1e-05, momentum=0.1, affine=True, track_running_stats=True)\n"",
+       ""    )\n"",
+       ""  )\n"",
+       ""  (layer3): Sequential(\n"",
+       ""    (0): BasicBlock(\n"",
+       ""      (conv1): Conv2d(128, 256, kernel_size=(3, 3), stride=(2, 2), padding=(1, 1), bias=False)\n"",
+       ""      (bn1): BatchNorm2d(256, eps=1e-05, momentum=0.1, affine=True, track_running_stats=True)\n"",
+       ""      (relu): ReLU(inplace=True)\n"",
+       ""      (conv2): Conv2d(256, 256, kernel_size=(3, 3), stride=(1, 1), padding=(1, 1), bias=False)\n"",
+       ""      (bn2): BatchNorm2d(256, eps=1e-05, momentum=0.1, affine=True, track_running_stats=True)\n"",
+       ""      (downsample): Sequential(\n"",
+       ""        (0): Conv2d(128, 256, kernel_size=(1, 1), stride=(2, 2), bias=False)\n"",
+       ""        (1): BatchNorm2d(256, eps=1e-05, momentum=0.1, affine=True, track_running_stats=True)\n"",
+       ""      )\n"",
+       ""    )\n"",
+       ""    (1): BasicBlock(\n"",
+       ""      (conv1): Conv2d(256, 256, kernel_size=(3, 3), stride=(1, 1), padding=(1, 1), bias=False)\n"",
+       ""      (bn1): BatchNorm2d(256, eps=1e-05, momentum=0.1, affine=True, track_running_stats=True)\n"",
+       ""      (relu): ReLU(inplace=True)\n"",
+       ""      (conv2): Conv2d(256, 256, kernel_size=(3, 3), stride=(1, 1), padding=(1, 1), bias=False)\n"",
+       ""      (bn2): BatchNorm2d(256, eps=1e-05, momentum=0.1, affine=True, track_running_stats=True)\n"",
+       ""    )\n"",
+       ""  )\n"",
+       ""  (layer4): Sequential(\n"",
+       ""    (0): BasicBlock(\n"",
+       ""      (conv1): Conv2d(256, 512, kernel_size=(3, 3), stride=(2, 2), padding=(1, 1), bias=False)\n"",
+       ""      (bn1): BatchNorm2d(512, eps=1e-05, momentum=0.1, affine=True, track_running_stats=True)\n"",
+       ""      (relu): ReLU(inplace=True)\n"",
+       ""      (conv2): Conv2d(512, 512, kernel_size=(3, 3), stride=(1, 1), padding=(1, 1), bias=False)\n"",
+       ""      (bn2): BatchNorm2d(512, eps=1e-05, momentum=0.1, affine=True, track_running_stats=True)\n"",
+       ""      (downsample): Sequential(\n"",
+       ""        (0): Conv2d(256, 512, kernel_size=(1, 1), stride=(2, 2), bias=False)\n"",
+       ""        (1): BatchNorm2d(512, eps=1e-05, momentum=0.1, affine=True, track_running_stats=True)\n"",
+       ""      )\n"",
+       ""    )\n"",
+       ""    (1): BasicBlock(\n"",
+       ""      (conv1): Conv2d(512, 512, kernel_size=(3, 3), stride=(1, 1), padding=(1, 1), bias=False)\n"",
+       ""      (bn1): BatchNorm2d(512, eps=1e-05, momentum=0.1, affine=True, track_running_stats=True)\n"",
+       ""      (relu): ReLU(inplace=True)\n"",
+       ""      (conv2): Conv2d(512, 512, kernel_size=(3, 3), stride=(1, 1), padding=(1, 1), bias=False)\n"",
+       ""      (bn2): BatchNorm2d(512, eps=1e-05, momentum=0.1, affine=True, track_running_stats=True)\n"",
+       ""    )\n"",
+       ""  )\n"",
+       ""  (avgpool): AdaptiveAvgPool2d(output_size=(1, 1))\n"",
+       ""  (fc): Linear(in_features=512, out_features=10, bias=True)\n"",
+       "")""
+      ]
+     },
+     ""execution_count"": 2,
+     ""metadata"": {},
+     ""output_type"": ""execute_result""
+    }
+   ],
+   ""source"": [
+    ""import torch.nn as nn\n"",
+    ""resnet18.fc = nn.Linear(512,10)\n"",
+    ""resnet18""
+   ]
+  },
+  {
+   ""cell_type"": ""code"",
+   ""execution_count"": 4,
+   ""id"": ""511ae48e"",
…
